pytorch_practice/model.pth (torch, 2951 bytes, 5 tensors)

weight f4 [4, 5]
0.08625906 -0.5408259 -0.07487424 -0.30176842 0.08786204 -0.24325635 0.45571402 0.28752276
0.23543116 -0.12650426 0.37729007 -0.5163793 -0.45613867 -0.08888381 0.14118229 -0.35571682
-0.031014726 -0.0092926035 -0.010917728 0.0031545144
00000000: 97a8 b03d 9173 0abf aa57 99bd 6481 9abe
00000010: 03f1 b33d 3118 79be 5953 e93e 2f36 933e
00000020: de14 713e 558a 01be 2a2c c13e 6f31 04bf
00000030: 028b e9be b708 b6bd 1792 103e 8420 b6be
00000040: 9812 febc 0140 18bc 45e0 32bc f8bb 4e3b

bias f4 [4]
-0.5155325 -0.17133181 0.11447822 2.3507981
00000000: f0f9 03bf 9b71 2fbe 8f73 ea3d 7a73 1640

weight f4 [3, 4]
-0.3771508 0.3935398 -0.07575836 -0.9127689 -0.3173478 0.7211278 0.1104898 1.1494403
-0.4508808 0.5970491 -0.21457589 1.7067213
00000000: e919 c1be 0c7e c93e 3327 9bbd 39ab 69bf
00000010: 697b a2be d59b 383f 7a48 e23d dc20 933f
00000020: d9d9 e6be 36d8 183f c8b9 5bbe d875 da3f

bias f4 [3]
0.06895953 -0.049940433 0.028852778
00000000: a73a 8d3d 578e 4cbd a95c ec3c

weight f4 [1, 3]
0.5029519 -0.84762317 -0.59604776
00000000: 75c1 003f d5fd 58bf 9696 18bf
